app/src/main/assets/modelUAM.tflite (tflite, 4504 bytes, 9 tensors)

sequential_5/normalization_5/truediv;sequential_5/normalization_5/Sqrt f4 [1, 18]
000000 1f 30 19 3e dd 3a 0e 40 29 ef be 3c c6 3b 8e 3d
       0.14959763 2.2223427 0.0233074 0.06944995
000010 df a4 f9 3e ac 55 1f 3e 4e d3 2b 3e 7b 2c 59 3e
       0.487586 0.15560025 0.16779825 0.21208374
000020 67 eb 25 41 10 87 b0 40 b0 42 86 40 61 f3 80 40
       10.369971 5.516487 4.1956406 4.0297093
000030 f5 63 79 3c c7 49 3d 3c 69 ba 39 3c 20 f6 8c 3b
       0.0152215855 0.011553234 0.011335948 0.0043018013
000040 39 d7 30 3b 48 75 a7 3a
       0.0026983751 0.0012776041

Const_1 f4 [1, 18]
000000 4c 8e 34 41 e5 62 90 3e 35 30 04 43 17 5c b9 42
       11.28474 0.2820045 132.18831 92.67986
000010 94 30 2a 40 5b 49 a9 3f 02 ee a2 3f b0 33 85 3f
       2.659215 1.3225511 1.2728884 1.0406399
000020 01 20 9c 3f 60 87 9e 3f c7 51 9e 3f 29 46 9e 3f
       1.2197267 1.2385063 1.2368706 1.2365161
000030 1c d8 51 41 3b b7 9f 41 9a a7 a5 41 68 43 ef 42
       13.115261 19.964468 20.706837 119.63165
000040 18 b3 7b 43 a3 51 3e 44
       251.69958 761.2756

sequential_5/dense_20/BiasAdd/ReadVariableOp f4 [9]
000000 8a 55 b6 3d e8 69 54 be 41 db d6 3e e6 22 48 bd
       0.08903034 -0.20743525 0.41964152 -0.048861407
000010 37 de 69 3e 9c 1f dd 3e 58 69 73 3e 14 a5 21 be
       0.22838674 0.4318818 0.23770654 -0.15785629
000020 42 33 f9 3d
       0.1216798

sequential_5/dense_21/BiasAdd/ReadVariableOp f4 [5]
000000 ac 4d 5c bd e9 f3 5b bb d2 5e 5d 3e 4e d9 1f 3e
       -0.05378501 -0.003356213 0.21618202 0.15610239
000010 51 6d 12 3b
       0.002234299

sequential_5/dense_22/BiasAdd/ReadVariableOp f4 [2]
000000 82 bf 8f bd 4e 97 56 be
       -0.07018949 -0.20956156

sequential_5/dense_20/MatMul f4 [9, 18]
000000 2d 8b ec bd 18 41 85 3e 24 4a d9 3e 4d bb 93 bd
       -0.11549983 0.26026225 0.42439377 -0.07213459
000010 c7 6b 29 bf 87 36 11 3f fd ee 10 be 7b b3 c9 3e
       -0.6618008 0.5672383 -0.14153667 0.39394745
000020 d8 e0 b8 3c 8f f2 22 3d b5 71 3a 3e 52 5d 7f 3e
       0.022568151 0.039782103 0.18207438 0.24937943
000030 8f 53 5a be d8 99 0e be a3 96 a4 be e7 7f 92 3d
       -0.21320938 -0.13925874 -0.32146177 0.07153302
000040 db d6 80 3e 36 8f 8c 3e f3 b5 14 3f 90 6c eb bb
       0.25163922 0.2745301 0.5809013 -0.0071845725
000050 70 34 88 be d4 e1 13 be 70 8b d7 be 6c 4a 32 bd
       -0.26602507 -0.14441615 -0.4209857 -0.043528005
000060 10 42 08 3f 32 89 8d 3d a5 56 0f 3e 87 e7 98 be
       0.53225803 0.069109336 0.13997896 -0.2986414
000070 f5 a8 d2 3e 0d b7 a4 bd 07 ed 98 3e 33 0b c8 3e
       0.4114453 -0.08042727 0.29868338 0.39071044
000080 58 52 1d be 1e 9b 98 3e 7a 0f c3 bd 74 b1 85 be
       -0.15363443 0.29805845 -0.09524436 -0.26111948
000090 4b 77 38 3b 67 69 f0 3e 81 43 05 3c 9c 37 25 3f
       0.0028147276 0.46955416 0.00813377 0.6453798
0000a0 a9 3b f9 be 27 4f 32 3e b6 ef ea bd 97 2b ef bd
       -0.4867833 0.17413007 -0.114715025 -0.11678236
0000b0 a6 e8 84 3e fb a5 34 3e 0a 45 dd bb 98 eb 28 be
       0.25958747 0.17641442 -0.006752615 -0.16496122
0000c0 ef 88 5c 3e e8 4f 26 3d 89 03 b6 bd bb 4e 44 3e
       0.21536611 0.04060355 -0.08887393 0.19170658
0000d0 7e 2c 83 3e a8 c8 bd be ac f7 2f be e9 40 91 bc
       0.25619882 -0.3706715 -0.17184323 -0.017731147
0000e0 86 e0 de 3e b5 89 b1 3e 85 f0 e9 3e 57 fa 20 3e
       0.43530673 0.34675375 0.45691314 0.15720497
0000f0 3d be 9c be 6a d1 72 3b fc 58 7a bf 8a f1 b2 3e
       -0.3061389 0.003705109 -0.9779203 0.34949905
000100 bb 23 36 be ca c1 1f be 9e 69 14 bf 3e d0 e4 be
       -0.17787068 -0.15601268 -0.5797366 -0.44690126
000110 d1 4e 81 bd 0f 39 a5 bd 78 e3 c6 3d cb f7 94 3e
       -0.06313861 -0.08067524 0.09711355 0.290953
000120 65 43 57 3d cc 58 e5 bd 2a f5 d3 3e 27 b8 02 bf
       0.052554507 -0.11198577 0.41397983 -0.51062244
000130 98 7b 35 bf a5 9c 76 3e 14 b6 f9 3e 8b 0c 87 be
       -0.70891714 0.24083193 0.48771727 -0.26376757
000140 e9 48 de be 73 21 bb 3d 76 6b 37 be 2b 4b b4 be
       -0.43415 0.09137239 -0.17912087 -0.352136
000150 b7 b7 49 be f4 55 35 3c 8a 47 0a 3e ee 0e 5f 3e
       -0.19698988 0.011067856 0.13503852 0.21783039
000160 86 0e c9 be 03 f3 1e 3e a9 5e 88 3c a6 b5 7f be
       -0.39268893 0.15522389 0.0166467 -0.24971637
000170 04 ef f5 be c6 23 b8 bd f6 d7 0f be 60 68 d3 be
       -0.48033917 -0.08991198 -0.14047226 -0.4129057
000180 50 28 62 bd fe 0f d7 3d b4 2f d0 3d 8d 76 e0 3c
       -0.055214226 0.10501097 0.10165349 0.02740028
000190 2f 1c 14 bd 96 85 64 be 10 cd b0 be e5 12 0c 3e
       -0.03615969 -0.22316584 -0.3453145 0.13679083
0001a0 46 d3 9d 3d 68 01 ac 3e 46 1d a2 be 7b 08 af 3e
       0.07706313 0.33594823 -0.3166296 0.34186158
0001b0 a0 4c a1 3e 2e c1 e4 3d 02 a1 81 bf f3 52 68 3e
       0.31503773 0.111696586 -1.0127261 0.22687893
0001c0 cb 72 0a bf 5f ca 43 be a9 5b 77 3e c9 e3 a2 be
       -0.5408141 -0.19120167 0.2415606 -0.3181441
0001d0 69 6c b8 be f4 7a f1 bd b8 ec 4f 3e 31 ef 66 3d
       -0.3602021 -0.117910296 0.20305145 0.056380454
0001e0 74 dd f4 3e 32 af 92 3e 91 b5 2f 3e 3b 61 77 be
       0.47825205 0.28649288 0.17159106 -0.24158184
0001f0 73 17 00 3e 7e 40 8b ba e4 59 b7 be 3b cd 99 bd
       0.12508945 -0.0010624079 -0.3581077 -0.07509848
000200 b4 8c aa be e1 04 34 be af c3 06 be a7 93 03 3e
       -0.33310473 -0.17579986 -0.13160585 0.12849294
000210 a0 cd 29 3f 78 73 d5 be 04 4a e2 3e 42 c5 d9 3e
       0.66329384 -0.41689658 0.44197094 0.42533308
000220 50 dd 0b 3d 62 97 40 3e 2e 8b ad 3d 6a 90 a9 3d
       0.034146607 0.18807748 0.08473812 0.08279498
000230 c8 35 c8 3b 94 e1 ea 3e 2d e4 72 be 15 2c a7 bd
       0.006109927 0.45875227 -0.23719855 -0.08162705
000240 f8 09 15 3f 2d 9e 86 be 8f d7 7c bc 13 2f 56 bf
       0.58218336 -0.26292554 -0.015432253 -0.8366558
000250 4c c9 01 3e 96 18 67 bd 36 44 fb 3e 82 15 0f 3f
       0.12674445 -0.05641993 0.49075478 0.55892193
000260 f7 4a ff 3e 37 e4 d4 bd 35 2e 42 3e 43 68 c3 3e
       0.4986188 -0.10395091 0.18962939 0.38165483
000270 f3 5b b8 3b 13 ae 1c 3e 49 b1 b1 bd 59 5d ce 3c
       0.0056261956 0.15300779 -0.086763926 0.025190996
000280 0d 42 53 be 03 81 1d 3d
       -0.20630665 0.038453113

sequential_5/dense_21/MatMul f4 [5, 9]
000000 ac a5 2c 3e 17 52 15 3f c6 98 75 bd b5 1d f9 3e
       0.16860074 0.58328384 -0.05996015 0.48655477
000010 0e ab 0f 3f 21 bf 43 bf 15 19 ec be 0e e8 b5 3d
       0.56120384 -0.76463515 -0.46112886 0.088821515
000020 d8 e8 c4 3d e1 8b 3b be 7f 90 01 3f a5 17 50 bf
       0.09614724 -0.18315078 0.5061111 -0.8128608
000030 8e 40 10 3f c2 26 f1 3e 65 26 39 bf f7 31 17 bf
       0.563485 0.47099882 -0.7232421 -0.59060615
000040 ea 4c 03 3f 78 d8 5d 3e e5 8b 02 bf ba 29 00 bf
       0.51289237 0.21664608 -0.5099471 -0.5006367
000050 51 6b 0a 3f de f7 e7 3d e7 cd 10 bf 4f c0 82 3e
       0.5407 0.11326574 -0.5656418 0.25537345
000060 0a 9d 83 3e 19 0c 1b bf 31 5e 0a 3f 2f 72 30 bf
       0.2570575 -0.60565335 0.54049975 -0.6892423
000070 20 94 79 bd d1 99 93 bd f3 c7 16 3e 25 83 bd 3e
       -0.06093228 -0.072070725 0.14724712 0.37014118
000080 a7 44 e3 3e f2 b8 eb be d7 71 93 3d e8 8f 91 3e
       0.44388315 -0.4603954 0.071994476 0.28430104
000090 1a c4 4a 3e 2b b2 37 3f 9a b4 0a bf e5 76 92 be
       0.1980137 0.7175624 -0.54181826 -0.28606334
0000a0 e8 90 4f 3d 07 9d 2d bf 07 39 5c bf df 59 ed bd
       0.050675303 -0.6781773 -0.86024517 -0.11589407
0000b0 85 1a 21 3f
       0.6293109

sequential_5/dense_22/MatMul f4 [2, 5]
000000 f8 54 5f 3f 6e d5 10 3f 87 d5 a8 bf 8f 7e c4 bd
       0.8723903 0.5657567 -1.3190163 -0.09594452
000010 bd 99 20 3f 40 2c 45 3f 38 48 88 be c9 c5 9c 3b
       0.62734586 0.77020645 -0.266176 0.00478432
000020 e8 7c 3d bf de 6d 16 3e
       -0.74018717 0.14690349

sequential_5/dense_23/MatMul f4 [1, 2]
000000 7b e1 48 bf 4d b1 47 3f
       -0.78469056 0.78004915
