app/src/main/assets/model.tflite (tflite, 4232 bytes, 9 tensors)

sequential_14/normalization_14/truediv;sequential_14/normalization_14/Sqrt f4 [1, 11]
0	0x3e170b6c	0.14750451
1	0x400d037d	2.203338
2	0x3cc117f4	0.023570992
3	0x3d8f7405	0.07004551
4	0x3efcfadf	0.4941015
5	0x3d9df2d3	0.07712331
6	0x394f72c6	0.00019783815
7	0x3f1191a4	0.56862855
8	0x3e1f1928	0.1553694
9	0x3e2bd4f0	0.16780448
10	0x3e5a0758	0.21291864

Const_1 f4 [1, 11]
0	0x4133b3f6	11.231436
1	0x3e9495be	0.29020494
2	0x43056636	133.39926
3	0x42b89ef5	92.31046
4	0x4029ac06	2.6511245
5	0x4098462a	4.758565
6	0x454648b6	3172.5444
7	0x3db1468e	0.08656035
8	0x3fa9e61c	1.3273349
9	0x3fa3288a	1.2746747
10	0x3f877094	1.0581231

sequential_14/dense_56/BiasAdd/ReadVariableOp f4 [9]
0	0xbe70039e	-0.2343888
1	0xbe1c809a	-0.15283433
2	0x3bb27396	0.005445908
3	0x3e501eef	0.203243
4	0x3e9e862f	0.3096175
5	0x3afaf636	0.0019146863
6	0xbeb5fbee	-0.3554377
7	0x3e74c853	0.23904543
8	0xbd0aaa8c	-0.033854052

sequential_14/dense_57/BiasAdd/ReadVariableOp f4 [5]
0	0x3d320ea9	0.043471012
1	0xbe41f4a9	-0.18940987
2	0xbd236a4f	-0.039896306
3	0xbda8691c	-0.08223173
4	0xbe01aafa	-0.12662879

sequential_14/dense_58/BiasAdd/ReadVariableOp f4 [2]
0	0xbde4b27b	-0.11166855
1	0xbdc358af	-0.095383994

sequential_14/dense_56/MatMul f4 [9, 11]
0	0x3d855823	0.06510951
1	0xbf03a47a	-0.51422846
2	0x3ef4da13	0.47822627
3	0x3e0515c2	0.12996581
4	0x3f998f6d	1.1996895
5	0xbf0a808d	-0.541024
6	0xbf2df39c	-0.67949843
7	0xbe8df2ba	-0.27724248
8	0xbe2e36b5	-0.17013057
9	0xbe753be7	-0.23948632
10	0xbdff37f3	-0.12461843
11	0xbe2070fb	-0.15668099
12	0xbf3474b6	-0.70490587
13	0x3e3cd818	0.18441808
14	0xbed4cc72	-0.4156223
15	0xbefe0c82	-0.49618918
16	0x3de9a903	0.114091896
17	0xbc36e53f	-0.011163055
18	0xbdcd34ba	-0.100198224
19	0xbe29ca16	-0.16580996
20	0xbd9feb59	-0.07808561
21	0x3e3063e6	0.17225608
22	0xbe403f54	-0.18774158
23	0xbd3209b7	-0.043466296
24	0x3ed54112	0.41651207
25	0x3d497b8f	0.0491901
26	0x3d4c590d	0.049889613
27	0xbf1eb2e9	-0.61991745
28	0x3ea737e5	0.32659832
29	0xbedeabdb	-0.4349049
30	0x3efeb7ee	0.49749702
31	0xbe4c0de1	-0.1992717
32	0xbdea3197	-0.1143524
33	0x3d594330	0.05304259
34	0xbe15d3df	-0.14631604
35	0xbeeff253	-0.46864566
36	0x3d3a5956	0.045495354
37	0x3ef0933d	0.46987334
38	0x3f102739	0.5630985
39	0xbecf7858	-0.40521502
40	0xbeca543a	-0.39517385
41	0xbf44c3cd	-0.7686127
42	0xbed97dfc	-0.4247893
43	0x3ef475c2	0.47746092
44	0x3db03ee5	0.08605746
45	0xbee48cc2	-0.4463864
46	0xbf09be6d	-0.5380619
47	0x3dc8700f	0.097869985
48	0xbee49255	-0.44642892
49	0xbefe5764	-0.4967605
50	0x3e28643f	0.16444491
51	0x3ee534d2	0.4476686
52	0xbe0acf23	-0.13555579
53	0xbee90e91	-0.45518926
54	0x3de7947e	0.113076195
55	0x3e14b65c	0.1452269
56	0xbe854f34	-0.2603699
57	0xbdc9ead7	-0.09859245
58	0xbf16237a	-0.5864788
59	0x3ec3f974	0.38276255
60	0x3dec4b1c	0.115377635
61	0x3cd028ff	0.025410173
62	0x3e2262ac	0.15857953
63	0x3f2b5ec9	0.66941506
64	0x3e809a66	0.25117797
65	0xbe3965cd	-0.1810524
66	0x3ecb3596	0.3968932
67	0x3ed75a0f	0.42060897
68	0x3f0f5d67	0.56001896
69	0xbefdb00d	-0.4954838
70	0x3e2b9341	0.16755392
71	0x3ed754b5	0.42056814
72	0xbda1c681	-0.0789919
73	0xbdf4b6e0	-0.11948943
74	0x3eefe053	0.46850833
75	0xbea800a2	-0.32812983
76	0xbe67527f	-0.22590064
77	0x3eafef3a	0.34362203
78	0xbecaccee	-0.39609474
79	0x3f2d709f	0.6774997
80	0x3e49a108	0.19690335
81	0xbdb163ef	-0.08661639
82	0xbec9adf6	-0.39390534
83	0x3d52929d	0.051409353
84	0xbf054c8f	-0.52069944
85	0xbdf4c39e	-0.119513735
86	0x3e78f767	0.24313127
87	0x3dfeac8c	0.124352545
88	0xbe0287cf	-0.1274712
89	0xbe8ea881	-0.27862933
90	0xbef8e141	-0.48609355
91	0xbf2728de	-0.65296733
92	0xbe0e5256	-0.13898596
93	0xbeb488c6	-0.352606
94	0xbd8f421a	-0.0699503
95	0xbef8d7cf	-0.4860215
96	0xbeab52af	-0.3346152
97	0xbe93c97e	-0.28864664
98	0x3f08549e	0.53254116

sequential_14/dense_57/MatMul f4 [5, 9]
0	0x3ec20ebe	0.37901872
1	0x3f034a3d	0.51285154
2	0x3e71c46c	0.23610085
3	0xbf22fc6d	-0.6366642
4	0xbec31c6c	-0.38107622
5	0xbee88c75	-0.4541966
6	0xbf00e4d6	-0.50349176
7	0x3eef973a	0.46795064
8	0x3ac71da3	0.0015191328
9	0xbf200031	-0.6250029
10	0x3dfbfa67	0.1230362
11	0x3f018ee8	0.5060868
12	0xbf3c1c31	-0.73480517
13	0xbe6e7e6f	-0.23290418
14	0x3ee39f71	0.44457582
15	0x3f0100cd	0.50391847
16	0x3aa4fe2d	0.0012587957
17	0x3eb196e0	0.3468542
18	0xbf7a9e05	-0.9789737
19	0xbcbd82ea	-0.023133714
20	0xbf413d2f	-0.75483984
21	0xbf2d7ef4	-0.6777184
22	0xbf51f727	-0.8201775
23	0x3f2f97f4	0.6859124
24	0x3dc0ca16	0.09413545
25	0x3efa006f	0.48828456
26	0x3ef3620f	0.4753575
27	0x3e2b5b5b	0.16734068
28	0xbd87c502	-0.06629373
29	0xbdcca5a9	-0.09992535
30	0xbec5ae9a	-0.38609773
31	0x3ed18bd1	0.40926984
32	0x3ea6de16	0.32591313
33	0xbf03b60b	-0.5144965
34	0xbf5bc113	-0.8584148
35	0xbf01694b	-0.5055129
36	0xbf486c90	-0.78290653
37	0x3c3a7449	0.011380264
38	0xbe8f4292	-0.27980477
39	0xbf199912	-0.5999919
40	0xbf07d76e	-0.53063095
41	0x3e45c10d	0.19311924
42	0x3d8f9a91	0.07011903
43	0x3ee30289	0.44337872
44	0x3f050fe3	0.51977366

sequential_14/dense_58/MatMul f4 [2, 5]
0	0x3f23cb14	0.6398175
1	0x3f0d816d	0.55275613
2	0x3eaa2c87	0.33237097
3	0xbf5237f0	-0.82116604
4	0xbea819a5	-0.32832065
5	0x3f012792	0.50451005
6	0x3f254ad3	0.645673
7	0x3fa681b5	1.3008333
8	0xbf4c82ba	-0.7988697
9	0x3eb187c0	0.34673882

sequential_14/dense_59/MatMul f4 [1, 2]
0	0xbef176dd	-0.47160998
1	0xbfa036a3	-1.2516674
